ssn_pretrained/ssn_bsds_model.caffemodel.npz (npz, 860851 bytes, 1 tensors)

arr_1 f4 [12, 64]
-3.0243666 7.190105 -14.798492 -6.944032 12.078565 0.75104094 -2.0997028 -12.385968
-11.401499 -18.543564 5.894001 0.7850393 11.966967 7.1618557 -2.9805262 23.26637
-5.525712 16.631088 1.6360558 2.019381 -2.133974 -20.693424 9.616432 6.8751416
-8.307248 -4.573575 8.397418 -3.0677226 -16.877857 4.98456 10.925224 -0.5946387
6.0152483 -1.8739989 -10.712719 -7.9015207 0.6053937 -7.2934704 4.592987 18.399784
-3.5853052 1.1025437 -5.0846095 -12.362259 15.8829565 -0.609355 7.358266 -0.3768679
-21.38515 -20.081635 5.622583 -1.2151895 2.4311664 -12.983212 15.177531 12.593986
-7.0870323 -11.053341 0.39619642 -6.728887 6.8685827 6.6156864 4.0298963 27.336643
80.78001 37.73825 55.759792 113.446266 72.535286 77.9178 12.822172 122.07709
80.06692 98.93305 24.628029 5.550032 98.909134 19.30806 3.8315399 153.28452
9.482474 59.620872 19.954378 70.15215 70.32789 65.020805 64.4152 22.294252
96.48429 5.2185774 51.787727 3.7199647 72.27138 57.475616 90.604004 2.8414567
21.55819 5.405884 81.29622 34.517014 29.992989 70.880066 59.58073 105.58605
59.93229 45.67435 19.676245 73.50156 69.61926 77.78502 72.966805 163.0682
137.88913 91.818855 69.5049 7.9717402 75.74658 23.071009 71.13281 52.89065
7.7856765 81.445145 153.46758 90.88151 109.061 7.3795524 3.4647894 185.86258
-1.39986 -6.0872903 -9.17127 -2.3655224 -11.725078 0.62154186 -2.3589673 -3.158283
-5.361007 0.3334184 -8.687641 -5.902149 3.968035 -8.839762 -2.4202042 -6.8566394
1.4591855 -9.49101 -2.1026757 -5.0892816 0.24212903 -0.74667245 0.16363336 -8.850729
0.3813901 4.1508336 -5.664141 10.172271 -9.619396 -0.13119197 -3.8055775 -9.27785
-2.3496544 -0.68030393 -0.083810754 -0.7343845 -2.3722363 -0.16071768 -8.92638 -0.58560103
-4.761043 11.264026 1.1930581 -4.2491198 3.0504923 -8.547148 -3.0662262 -0.27182823
6.7506776 1.7685971 0.5706838 -5.3090925 -5.0145326 4.118708 0.80492574 -0.34965393
-2.6113482 0.33110118 3.083089 7.694125 -8.418875 -6.721767 -4.1224327 1.1690427
5.1955357 21.899752 51.55896 97.79352 54.47072 4.244102 55.0162 49.83701
48.590473 3.2660367 50.014378 102.49565 54.09054 25.7505 24.348417 82.4177
25.284563 59.810955 78.55126 80.08792 4.4430118 4.7366233 5.4185266 88.669815
3.0004206 45.33468 94.966446 63.220863 29.786308 5.1644235 65.23202 26.25754
7.740704 42.556263 63.39472 57.162678 84.6106 39.655617 92.54618 5.7292204
42.736237 28.821123 55.581085 37.783012 46.475594 29.07169 28.807232 3.6761212
41.388092 68.84755 41.98412 85.17908 81.584236 34.79657 47.91512 24.386415
60.1063 5.194692 38.77459 53.196144 35.599358 48.117805 50.431 43.619015
00000000: 398f 41c0 5715 e640 a0c6 6cc1 8335 dec0
00000010: cd41 4141 3844 403f 8861 06c0 ed2c 46c1
00000020: 8a6c 36c1 3859 94c1 a89b bc40 56f8 483f
00000030: b278 3f41 ec2d e540 f1c0 3ec0 8721 ba41
00000040: a2d2 b0c0 780c 8541 476a d13f 8a3d 0140
00000050: 0893 08c0 228c a5c1 e8dc 1941 2901 dc40
00000060: 7dea 04c1 ba5a 92c0 d35b 0641 9155 44c0
00000070: da05 87c1 8481 9f40 b8cd 2e41 3e3a 18bf
00000080: ea7c c040 32df efbf 4c67 2bc1 42d9 fcc0
00000090: 15fb 1a3f 1c64 e9c0 c0f9 9240 c232 9341
000000a0: a475 65c0 2720 8d3f 1fb5 a2c0 d0cb 45c1
000000b0: 9720 7e41 b0fe 1bbf ea76 eb40 d4f4 c0be
000000c0: ca14 abc1 30a7 a0c1 33ec b340 548b 9bbf
000000d0: 3b98 1b40 3dbb 4fc1 2bd7 7241 f780 4941
000000e0: f8c8 e2c0 7cda 30c1 42da ca3e 0b53 d7c0
000000f0: 6ecb db40 b4b3 d340 e9f4 8040 72b1 da41
00000100: 5d8f a142 f8f3 1642 070a 5f42 7de4 e242
00000110: 1112 9142 ead5 9b42 9e27 4d41 7827 f442
00000120: 4322 a042 b9dd c542 3406 c541 dd99 b140
00000130: 7ad1 c542 e876 9a41 f337 7540 d648 1943
00000140: 37b8 1741 c67b 6e42 91a2 9f41 e74d 8c42
00000150: e1a7 8c42 a70a 8242 95d4 8042 a15a b241
00000160: f5f7 c042 96fe a640 a226 4f42 e713 6e40
00000170: f28a 9042 08e7 6542 4035 b542 6dda 3540
00000180: 2c77 ac41 00fd ac40 aa97 a242 6c11 0a42
00000190: a4f1 ef41 98c2 8d42 ab52 6e42 0f2c d342
000001a0: aaba 6f42 89b2 3642 f368 9d41 cc00 9342
000001b0: 103d 8b42 ee91 9b42 01ef 9142 7611 2343
000001c0: 9ee3 0943 41a3 b742 8202 8b42 7f18 ff40
000001d0: 407e 9742 6d91 b841 0044 8e42 0790 5342
000001e0: 4324 f940 eae3 a242 b377 1943 55c3 b542
000001f0: 3b1f da42 4b25 ec40 1cbf 5d40 d2dc 3943
00000200: 9d2e b3bf 15cb c2c0 86bd 12c1 b864 17c0
00000210: eb99 3bc1 5e1d 1f3f 52f9 16c0 4f21 4ac0
00000220: 5f8d abc0 d1b5 aa3e 9400 0bc1 68de bcc0
00000230: 49f4 7d40 aa6f 0dc1 a0e4 1ac0 9769 dbc0
00000240: 97c6 ba3f 2ddb 17c1 3d92 06c0 65db a2c0
00000250: acf0 773e ed25 3fbf 818f 273e 969c 0dc1
00000260: 9045 c33e a1d3 8440 a540 b5c0 9fc1 2241
00000270: 0ce9 19c1 3057 06be 958e 73c0 1372 14c1
00000280: bd60 16c0 6628 2ebf f9a4 abbd 9f00 3cbf
00000290: b8d2 17c0 2d93 24be 74d2 0ec1 f3e9 15bf
000002a0: 775a 98c0 7339 3441 21b6 983f caf8 87c0
000002b0: 443b 4340 1ec1 08c1 0d3d 44c0 122d 8bbe
000002c0: 8d05 d840 6461 e23f 5518 123f 16e4 a9c0
000002d0: 0d77 a0c0 75cc 8340 9d0f 4e3f d705 b3be
000002e0: 5420 27c0 1886 a93e 5551 4540 4636 f640
000002f0: b6b3 06c1 b718 d7c0 f8ea 83c0 31a3 953f
00000300: d441 a640 b132 af41 603c 4e42 4896 c342
00000310: 04e2 5942 afcf 8740 9710 5c42 1959 4742
00000320: a55c 4242 bf06 5140 b90e 4842 c6fd cc42
00000330: b75c 5842 0601 ce41 8fc9 c241 ddd5 a442
00000340: c946 ca41 6b3e 6f42 3f1a 9d42 042d a042
00000350: 272d 8e40 6b92 9740 9264 ad40 f256 b142
00000360: e406 4040 b656 3542 d2ee bd42 2ae2 7c42
00000370: 5c4a ee41 f542 a540 cb76 8242 710f d241
00000380: d9b3 f740 9d39 2a42 3194 7d42 95a6 6442
00000390: a138 a942 5a9f 1e42 a517 b942 c655 b740
000003a0: e8f1 2a42 a991 e641 0853 5e42 ce21 1742
000003b0: 02e7 3942 d292 e841 3675 e641 9245 6b40
000003c0: 688d 2542 f2b1 8942 bdef 2742 b05b aa42
000003d0: 212b a342 b02f 0b42 15a9 3f42 6117 c341
000003e0: da6c 7042 eb3a a640 2e19 1b42 dac8 5442
000003f0: be65 0e42 a278 4042 58b9 4942 df79 2e42
