lib/ssn_pretrained/ssn_cityscapes_model.caffemodel.npz (npz, 860851 bytes, 1 tensors)

arr_1 f4 [12, 64]
000000 51 93 8a c0 ce 9f ac 40 b1 f5 2f 3f 82 21 bb bf
       -4.330483 5.3945074 0.6873427 -1.4619601
000010 42 42 0f 40 8f ab 83 c0 97 d6 2d 41 ae 38 53 c0
       2.238419 -4.114692 10.86489 -3.3003345
000020 fd a9 b2 bf 1d 00 2a c1 5f 45 0d c1 f9 74 12 c2
       -1.3958126 -10.625028 -8.829436 -36.61423
000030 99 64 b3 bf f9 ab d8 be ec 29 c7 40 02 53 50 bf
       -1.4015075 -0.42318705 6.2238674 -0.8137666
000040 b2 59 0e c1 f7 46 d5 c0 0e 49 3e c1 60 01 b3 c0
       -8.896898 -6.6649127 -11.892836 -5.593918
000050 f4 09 bb 3f 4a a8 1b bf 2f 4a b4 c0 1b 1c 7c c0
       1.4612412 -0.60803664 -5.6340556 -3.9392154
000060 74 bd e8 bf 96 7f 23 3e eb e9 92 40 bb 19 12 c0
       -1.8182817 0.15966639 4.5910544 -2.2828205
000070 5a 1b 17 c0 81 9e 6d c1 d5 44 79 c0 b2 89 10 c0
       -2.3610444 -14.851197 -3.8948262 -2.2584043
000080 5e 2a 3a 41 bd bf c2 3f a9 a1 88 40 a0 94 97 c0
       11.635344 1.5214764 4.269734 -4.7368927
000090 7a 99 16 c0 d1 74 55 bf 34 66 45 c1 9e 89 69 3f
       -2.3531175 -0.8338137 -12.337452 0.9122561
0000a0 d3 25 a2 bf db 40 8e bf 5f 02 05 c1 86 f1 8d 40
       -1.2667793 -1.1113542 -8.313079 4.435733
0000b0 e9 65 a2 bf 19 ba 54 c0 73 41 d8 40 ee a6 4b c1
       -1.268735 -3.3238585 6.7579894 -12.728254
0000c0 1d ef a4 c0 88 0a d3 40 ed 5e a2 c0 88 b7 e6 40
       -5.1541886 6.5950356 -5.0740876 7.2099037
0000d0 94 8a e3 bf 60 62 88 c0 0d 59 bb c0 8c 30 7e 41
       -1.7776666 -4.2620087 -5.8546205 15.886852
0000e0 7e cc 3c c0 36 fb b8 c0 49 c6 f3 bf 71 5a e2 bf
       -2.9499812 -5.7806654 -1.9044887 -1.768385
0000f0 d9 83 c1 c0 7c 86 ad 40 ee 3c 12 40 58 66 15 41
       -6.0473447 5.4226665 2.2849689 9.337486
000100 44 07 fe 40 d8 c2 1b 41 85 a3 c2 40 6a be 76 41
       7.938387 9.735069 6.082461 15.421488
000110 41 ae d6 40 10 54 3d 41 31 65 3e 42 2a 5a 0b 41
       6.708771 11.833023 47.59882 8.709513
000120 f2 72 9b 3f 9b 88 e2 41 b8 ee af 41 a2 34 d3 43
       1.2144454 28.316702 21.991562 422.4112
000130 91 7c 67 3f 80 7c 02 41 84 63 ff 40 74 c6 3b 41
       0.9042445 8.1553955 7.980898 11.73595
000140 04 d6 2f 42 a5 8d ad 41 b0 38 37 42 59 4a ce 41
       43.959 21.694162 45.80536 25.786303
000150 ee 59 94 3f 7d 5c 36 40 a7 09 d1 41 19 cb 06 42
       1.1589944 2.849395 26.129713 33.698338
000160 e5 5e 15 41 dc 9f 81 40 af 8c 5d 41 88 b9 d3 3f
       9.335668 4.050764 13.846847 1.6540995
000170 92 ee 2e 40 f8 21 8a 42 e5 e5 6b 41 1f 70 df 40
       2.7333112 69.066345 14.743627 6.9824367
000180 6f aa c0 41 76 57 b8 3f de ac 36 41 28 c1 6f 40
       24.08322 1.4401691 11.417204 3.7461643
000190 53 d3 9b 40 a2 75 c6 3f 8a 2d 9a 42 7e 6e 17 41
       4.8695464 1.5504649 77.08894 9.464476
0001a0 c0 46 e3 3f 21 e1 5c 41 e8 d0 0a 42 d7 bf ec 40
       1.7755966 13.804963 34.70401 7.398418
0001b0 60 04 a3 3f 70 08 85 41 2c 26 47 42 75 90 6f 42
       1.273571 16.62912 49.787277 59.89107
0001c0 18 fd 00 42 44 32 2b 41 45 b2 31 41 75 8c 4e 41
       32.24716 10.699772 11.106023 12.909291
0001d0 6f 60 86 3f 89 f6 b6 40 ad e8 66 41 b5 39 18 43
       1.0498179 5.7175946 14.431806 152.22542
0001e0 8b 3a 5e 41 5a 48 3d 41 c6 98 0b 41 2f a3 ac 41
       13.889293 11.830164 8.724798 21.57968
0001f0 88 00 71 41 97 f6 4a 41 0b f5 b1 41 0a 91 a6 41
       15.06263 12.685203 22.24465 20.82082
000200 b7 1b 4f 3f e9 d9 44 bf d3 4b 4d 3f 83 a2 0f c0
       0.80901664 -0.76895005 0.80193824 -2.244294
000210 3c 24 20 c0 1b fa 93 bf a1 15 85 c0 e9 82 8c 3e
       -2.5022116 -1.1560701 -4.1588902 0.27443627
000220 46 54 17 bf 79 b8 b6 c0 32 7b 74 c0 04 33 ab bf
       -0.59112966 -5.7100186 -3.8200192 -1.3374944
000230 87 7f 98 c0 16 88 ca be 51 b3 cd be 05 dc f3 c0
       -4.7655673 -0.3955695 -0.4017587 -7.620608
000240 f0 72 db c0 71 cc 06 c0 a7 70 d3 c0 fb f2 84 bf
       -6.8577805 -2.106228 -6.6075015 -1.0386652
000250 06 5e a3 be 7a 68 ae bd 08 c3 76 c0 67 7f 98 bd
       -0.31907672 -0.08516021 -3.8556538 -0.07446175
000260 2b 63 f8 be e8 26 54 c0 fe a5 19 bf a8 b0 6f 3e
       -0.4851316 -3.3148746 -0.6001891 0.23407233
000270 40 26 97 c0 21 7c f3 c0 c8 f0 06 c0 3c be a8 c0
       -4.723419 -7.6089025 -2.1084461 -5.273222
000280 b9 cb 0a 41 f5 89 d5 bf 84 13 b2 3e 1a 8a b0 c0
       8.674737 -1.6682726 0.34780514 -5.516858
000290 e7 12 37 bf 24 bb a3 c0 f9 f6 98 c0 3e 52 31 c0
       -0.7151322 -5.1165943 -4.780148 -2.7706447
0002a0 32 44 c2 3e ab f5 ab c0 3c 65 bb c0 29 08 20 be
       0.37942654 -5.373739 -5.8561077 -0.15628113
0002b0 f8 4b 01 41 93 4c 74 40 a9 aa d7 40 aa d5 cb bf
       8.081047 3.8171737 6.7395825 -1.592458
0002c0 3e 67 3c c0 48 ce 21 be a9 48 02 41 c0 66 ee 40
       -2.9438014 -0.15801346 8.142739 7.4500427
0002d0 53 f9 ef c0 b3 d9 af c0 17 6b 47 3f a8 30 5a 3f
       -7.499185 -5.4953246 0.7789778 0.85230494
0002e0 87 ca 6d c0 76 c5 56 c0 21 0f cf 40 a4 d0 bd c0
       -3.7154863 -3.355802 6.470597 -5.931719
0002f0 e3 6c ed 3c da 62 77 c0 e3 21 bf c0 90 21 93 3f
       0.028982585 -3.8654084 -5.9728866 1.1494617
000300 00 ff 84 41 47 16 b7 41 3e 33 2c 42 40 93 f8 41
       16.624512 22.885878 43.05004 31.0719
000310 e9 c2 53 41 0c 9c 45 42 42 ad 00 42 d0 ac af 3f
       13.2350855 49.40239 32.169197 1.3724613
000320 a3 a3 ce 41 f3 60 04 42 2b 08 c4 41 d7 44 83 40
       25.8299 33.094677 24.503988 4.1021533
000330 17 c2 8a 41 e5 2f 57 40 3d 9e 57 40 2c 04 13 42
       17.34477 3.3622983 3.369033 36.754074
000340 aa b3 2a 42 9b 08 93 41 a8 ec 8c 41 22 34 a9 40
       42.675453 18.379202 17.615555 5.287614
000350 61 35 fd 3f cf 84 36 40 cd e1 8b 41 e4 58 e5 3f
       1.9781915 2.851856 17.485254 1.7917752
000360 56 1a 4a 41 36 be bb 41 44 59 b0 41 9d e7 f6 41
       12.63143 23.467876 22.043587 30.863092
000370 9f 7e 03 42 d8 75 08 42 d0 64 d4 41 61 e5 ee 41
       32.873653 34.11508 26.549225 29.862001
000380 36 d6 b7 41 1f 72 a6 40 aa e0 e6 3f 7f 16 3e 41
       22.979595 5.201431 1.8037312 11.880492
000390 71 66 d7 41 e4 17 cd 41 5b b7 94 41 95 91 be 41
       26.92502 25.636665 18.589529 23.821085
0003a0 48 a2 dd 41 7b 41 5d 42 c8 1d e7 41 a3 c3 14 40
       27.704239 55.313946 28.889542 2.3244407
0003b0 2e 5d ff 41 98 fa 04 42 b3 a2 b0 41 23 1d 1c 42
       31.920498 33.24472 22.079443 39.028454
0003c0 a2 3c 8d 41 dc 3b 83 40 d0 f9 2c 42 a1 cf b0 41
       17.654606 4.101057 43.243958 22.101381
0003d0 02 dd d2 41 d8 2c 10 42 91 9c 02 42 dc 93 ba 41
       26.357914 36.043793 32.652897 23.322197
0003e0 e4 1a 0d 42 df 2e e1 41 37 00 c0 41 11 e7 59 41
       35.27626 28.147886 24.000105 13.618913
0003f0 a4 68 33 42 2b b4 4b 41 88 dc c9 41 8d 65 22 42
       44.85219 12.731486 25.232681 40.59917
